code4step3/model/featureLearningModel.pt (torch_old, 197921 bytes, 8 tensors)

weight f4 [32, 1, 3, 3, 3]
0	0xbe6a1c3a	-0.2286233
1	0xbeb4f8d8	-0.35346103
2	0xbe07f942	-0.13278678
3	0x3d7a3a18	0.06109056
4	0x3e4fb1d5	0.20282681
5	0xbf08f048	-0.5349164
6	0xbda908c0	-0.08253622
7	0xbd0e8c20	-0.034801602
8	0xbe5be28f	-0.21473144
9	0xbeb77ce4	-0.3583747
10	0x3e756304	0.23963553
11	0x3ea5208f	0.32251403
12	0x3ef75b1b	0.48311695
13	0x3ea46c27	0.32113764
14	0xbd1319e0	-0.03591335
15	0x3ee42a3a	0.44563466
16	0x3e9cab21	0.3059931
17	0xbf43e987	-0.7652821
18	0xbd568c55	-0.052379925
19	0xbed73743	-0.4203435
20	0x3e8a9111	0.27063802
21	0x3e47dd29	0.1951796
22	0x3ea4b28a	0.32167464
23	0xbe06ac48	-0.13151658
24	0x3e9e39af	0.30903384
25	0x3e562fb7	0.2091664
26	0x3ec624f3	0.38700065
27	0xbda8f24c	-0.082493395
28	0xbdecabe1	-0.11556221
29	0xbd2f4d5c	-0.042798385
30	0xbe998482	-0.29983908
31	0xbd1503d1	-0.036380593
32	0xbe9b008e	-0.3027386
33	0x3d899d45	0.0671945
34	0xbdb3945e	-0.08768533
35	0xbc48d29c	-0.012257244
36	0xbe30f292	-0.17280033
37	0xbd93f843	-0.072250865
38	0xbe2b380a	-0.16720596
39	0xbd219dd7	-0.03945717
40	0xbcb54ff9	-0.02213286
41	0x3e85567b	0.26042542
42	0x3d8cab75	0.0686864
43	0x3e822f20	0.2542658
44	0x3df2e675	0.118603624
45	0xbeaee933	-0.34162292
46	0x3d3ce31f	0.046115037
47	0x3daf0523	0.085459016
48	0x3dd36333	0.10321655
49	0xbd65e8e8	-0.05613032
50	0x3e36b400	0.17842102
51	0x3e3413e4	0.17585713
52	0xbe66ca84	-0.22538191
53	0xbe8602e2	-0.26174074
54	0x3eb98313	0.36232814
55	0xbe10eebe	-0.14153573
56	0xbcb44b04	-0.022008426
57	0x3e58a27f	0.21155737
58	0xbe0f633d	-0.140027
59	0x3da5ffd2	0.081054345
60	0xba8dda6b	-0.001082254
61	0x3e8833de	0.26602072
62	0xbda34ce3	-0.07973649
63	0xbeaf88d2	-0.34284073
64	0xbf1b6903	-0.6070711
65	0x3d9d24ff	0.07673072
66	0xbe155d3a	-0.14586344
67	0x3c40f07c	0.011776086
68	0xbc5a03db	-0.013306583
69	0x3e356250	0.17713284
70	0x3e6dcccb	0.23222654
71	0x3f299c36	0.66253984
72	0x3d394cd6	0.045239292
73	0x3cf29aca	0.029614825
74	0x3d8dbbfa	0.06920619
75	0xbe8fed37	-0.28110668
76	0xbe9fbb4c	-0.31197584
77	0xbec71ed3	-0.38890705
78	0xbc90449c	-0.01761084
79	0x3e179278	0.14801967
80	0x3dcd0a06	0.100116774
81	0x3ec87fb7	0.3915994
82	0xbe5a73f0	-0.21333289
83	0x3d79029a	0.060793497
84	0xbe6d39ae	-0.23166534
85	0x3e5c9f4a	0.21545139
86	0x3ed05d0c	0.4069599
87	0xbdd8fd5a	-0.10595198
88	0x3e383fbe	0.17993066
89	0xbdecf0fc	-0.115694016
90	0x3e1d8f69	0.15386738
91	0xbef16e1a	-0.47154313
92	0xbee465e0	-0.44608974
93	0xbeb09b15	-0.34493318
94	0x3e054f97	0.13018642
95	0xbd58d987	-0.052941825
96	0xbe869cdb	-0.26291546
97	0x3dba5a31	0.09099234
98	0x3e1b1d21	0.1514783
99	0x3e090a78	0.133829
100	0x3ece294c	0.40265882
101	0x3e8bff07	0.27343008
102	0xbe1a3d6f	-0.15062498
103	0x3d7399ce	0.05947285
104	0xbe3f662f	-0.18691324
105	0x3cad7901	0.021175863
106	0xbd6d752a	-0.057973064
107	0xbe5d7c82	-0.21629527
108	0xbd8dd42e	-0.06925236
109	0xbe3a1dd6	-0.18175444
110	0xbe4a79c1	-0.19773008
111	0x3e57ec5f	0.21086262
112	0xbea07bf1	-0.3134456
113	0x3f4863c5	0.78277236
114	0xbebfe285	-0.37477508
115	0x3e585555	0.21126302
116	0x3e890657	0.2676265
117	0x3d7b0f6e	0.06129401
118	0xbdd13f6a	-0.102171734
119	0xbdb68186	-0.089114234
120	0xbeb4aab8	-0.35286498
121	0x3e013d5e	0.12621066
122	0x3dfc1300	0.123083115
123	0x3e96156b	0.29313216
124	0x3d571777	0.052512612
125	0x3e81193e	0.2521457
126	0xbe80cc7e	-0.25156015
127	0x3d065c3b	0.0328028
128	0x3e184958	0.14871728
129	0xbe9c4877	-0.30524036
130	0x3ea4f87d	0.32220832
131	0xbead763a	-0.33879262
132	0xbe359165	-0.17731245
133	0x3d9c3330	0.07626951
134	0xbdfbde93	-0.12298312
135	0xbe9e1d4f	-0.30881736
136	0xbd13ad90	-0.036054194
137	0xbde4a578	-0.11164373
138	0xbdbc5672	-0.09196176
139	0xbd5a91e2	-0.05336178
140	0xbea8f549	-0.32999638
141	0xbe09b0ce	-0.13446352
142	0xbc766cc2	-0.015040578
143	0xbe11e89a	-0.14248887
144	0x3d5cd301	0.053912167
145	0xbec71862	-0.3888579
146	0xbda95053	-0.08267274
147	0xbea71c72	-0.3263889
148	0x3e523cd3	0.20531015
149	0x3ea894f7	0.3292615
150	0x3e90f5f7	0.28312656
151	0xbd0aa6a0	-0.033850312
152	0xbe825aed	-0.25459996
153	0xbbdbeed0	-0.0067118183
154	0xbe814af7	-0.25252506
155	0xbcdfee31	-0.027335258
156	0x3dca1c8a	0.09868725
157	0x3ef22931	0.47297052
158	0x3eda6f36	0.42662972
159	0x3e450895	0.19241555
160	0x3dc718a7	0.09721499
161	0xbe68026f	-0.22657178
162	0x3e34aca4	0.17643982
163	0xbd9e30fa	-0.07724185
164	0x3dea6a11	0.11446012
165	0x3d4b7bc9	0.049678598
166	0xbe0015b8	-0.12508285
167	0xbe8d3f1a	-0.27587205
168	0x3c2d8ede	0.010593144
169	0xbef77ebc	-0.48338878
170	0x3e803d4f	0.25046775
171	0xbc1ed07d	-0.009693262
172	0xbe863fb0	-0.26220465
173	0xbdd25894	-0.10270801
174	0xbe87cd46	-0.265238
175	0x3ead47de	0.33843893
176	0x3ea4d6cd	0.3219513
177	0x3e95f6f8	0.29289985
178	0x3ea3291a	0.31867296
179	0x3e3c0a9d	0.18363424
180	0xbdea9abf	-0.11455297
181	0xbdc27812	-0.09495558
182	0xbe9a74c3	-0.30167207
183	0x3b3a8421	0.0028460103
184	0xbe635e7f	-0.22204016
185	0xbd46a0ee	-0.04849332
186	0x3db79266	0.0896347
187	0xbe77dbcb	-0.24204938
188	0x3e47c12b	0.19507281
189	0x3f03e4d6	0.5152105
190	0xbe114c46	-0.14189252
191	0xbe1a2de3	-0.15056567
192	0xbf051f9c	-0.5200136
193	0xbe0f1389	-0.13972296
194	0x3e8b8492	0.2724958
195	0xbd97f4b7	-0.074197225
196	0xbd490075	-0.0490727
197	0x3d2b71a5	0.041856427
198	0x3d3cfe51	0.046140973
199	0xba7b5d0b	-0.00095887546
200	0xbe9b3157	-0.3031108
201	0xbe8c354d	-0.27384415
202	0xbcbef7ed	-0.02331158
203	0x3d405e64	0.046965018
204	0x3dc70b1b	0.09718915
205	0x3e247be2	0.16062883
206	0xbea8cf59	-0.32970694
207	0x3e350704	0.17678457
208	0x3e70ba18	0.23508489
209	0xbe9d5194	-0.30726302
210	0xbe580658	-0.2109617
211	0x3e01ec46	0.12687787
212	0x3e70dadd	0.2352099
213	0x3e019f0d	0.1265833
214	0x3df53701	0.11973382
215	0x3e87277e	0.26397318
216	0x3c994e81	0.018714191
217	0x3ee3ec71	0.44516328
218	0x3e77d0bc	0.2420072
219	0x3d846036	0.06463663
220	0x3e04a8c2	0.12955001
221	0xbcd625af	-0.026141016
222	0x3dc8ad27	0.09798651
223	0xbe3b2ed6	-0.18279585
224	0xbf3ab154	-0.7292683
225	0x3efd4f1d	0.4947442
226	0x3ea30dd1	0.3184648
227	0x3e8271d2	0.25477463
228	0x3d9bacab	0.07601293
229	0x3dc256c7	0.09489208
230	0x3e54fcf5	0.2079962
231	0x3e6eeed1	0.23333289
232	0xbd647bbb	-0.05578206
233	0x3e9dcf94	0.30822432
234	0xbee0a023	-0.43872175
235	0xbedede9b	-0.4352921
236	0xbd30d85f	-0.043175098
237	0xbd7342c1	-0.059389833
238	0x3e01729b	0.12641375
239	0xbf1677c3	-0.5877649
240	0x3e90ca60	0.282794
241	0x3e47e280	0.19519997
242	0x3e8dc739	0.27691057
243	0xbd8bc13a	-0.068239644
244	0xbc2772cc	-0.010220241
245	0xbc0d6384	-0.008629683
246	0x3e3cc94a	0.1843616
247	0xbcf866c3	-0.030322438
248	0xbce5981c	-0.028026633
249	0xbb9dce64	-0.0048158634
250	0xbc4d82d8	-0.012543403
251	0x3d41cc65	0.047314066
252	0xbc461451	-0.012089805
253	0x3b379951	0.0028014968
254	0x3c227701	0.009916068
255	0xbcf4bc78	-0.029875025

bias f4 [32]
0	0xbccc5812	-0.024944339
1	0x3cd3b335	0.025842289
2	0x3c4701f8	0.0121464655
3	0xbb92e94c	-0.0044833776
4	0x3cd8f8a4	0.026485749
5	0x3b27dcdc	0.002561382
6	0xbb2309f2	-0.0024877754
7	0x3bda46b2	0.0066612596
8	0xbb8bb4b9	-0.004263487
9	0x3846d820	4.740816e-05
10	0xbba342a9	-0.0049823117
11	0xbc257cb8	-0.010100536
12	0xbbcc1cc7	-0.0062290165
13	0x3c24f1db	0.010067428
14	0x3b5d2b10	0.003374759
15	0xbb0d38d6	-0.002154877
16	0xbbad1eac	-0.0052831974
17	0xbcc138b8	-0.023586616
18	0x3ca63eb9	0.02029358
19	0xba1c460e	-0.00059613667
20	0x3c661bc1	0.014044703
21	0xbc4203df	-0.011841743
22	0xbbdd5ad7	-0.0067552137
23	0x3c38ffde	0.011291472
24	0x3cbd7426	0.023126673
25	0x3c9a9c44	0.018873341
26	0x3cb70776	0.022342425
27	0xbcbc4dcb	-0.022986313
28	0x3c6cf02f	0.014461561
29	0x3c53e86d	0.012933833
30	0xbc79412b	-0.015213291
31	0x3c693248	0.014233179

weight f4 [32, 32, 3, 3, 3]
0	0xbc3a341c	-0.011364963
1	0xbc9817d4	-0.01856605
2	0x3c4ccb69	0.012499669
3	0x3d05b6bc	0.032644972
4	0xbd9f79e9	-0.077869244
5	0xbb1c404e	-0.002384204
6	0x3d77217d	0.06033467
7	0xb8add0b8	-8.28816e-05
8	0xbd5905e3	-0.05298413
9	0xbce5011d	-0.027954632
10	0x3d1579ea	0.03649322
11	0xbb7bab1a	-0.0038401545
12	0xbcc1b7a1	-0.023647131
13	0x3d87c5f4	0.066295534
14	0xbd3e0d18	-0.046399206
15	0xbcdfe0e8	-0.027328923
16	0xbc864631	-0.016390892
17	0x3d9f0852	0.07765259
18	0x3d99eecf	0.07516252
19	0xbcaf0eb5	-0.021369318
20	0xbc2954e0	-0.010335177
21	0x3d79c576	0.06097933
22	0xbd58cdbe	-0.052930586
23	0xbd2c700f	-0.042099055
24	0x3b80034d	0.0039066435
25	0xbd2e88ae	-0.042610817
26	0xbaa7a46c	-0.001279009
27	0xbc6db28e	-0.014507903
28	0x3cbc46e5	0.022983024
29	0xbb7fcb28	-0.0039031003
30	0x3c87a9f6	0.016560536
31	0xbc76871c	-0.015046861
32	0x3aff547e	0.0019480137
33	0x3d4c6e9b	0.04991017
34	0xbc0920ec	-0.008369666
35	0xbbf27a14	-0.0073998068
36	0x3c50ebd9	0.012751543
37	0xbc19d535	-0.009389211
38	0xbc4bd5cb	-0.012441109
39	0x3ce943ce	0.028474715
40	0x3c148ec5	0.009067242
41	0x3b6b65a6	0.0035918741
42	0x3c9817c7	0.018566025
43	0x3cb9a793	0.022662913
44	0xbbbe9f87	-0.005817357
45	0x3cb04441	0.021516921
46	0x3bb30c7b	0.0054641343
47	0x3cc2c5df	0.023775993
48	0xbb0dbeb8	-0.002162857
49	0x3c854bb9	0.016271459
50	0x3b49ae4b	0.0030774053
51	0x3d38064c	0.04492788
52	0xb93c6496	-0.00017966548
53	0x3bd4908c	0.006486958
54	0xbbfc8bc0	-0.007707089
55	0xbc0c0acc	-0.008547496
56	0xbbee1774	-0.0072659794
57	0xbc558988	-0.013033278
58	0xbc59295e	-0.013254492
59	0xbcee9957	-0.029125853
60	0xbd2d2759	-0.042273853
61	0x3d28120b	0.041032832
62	0x3c69464e	0.014237953
63	0x3a282ffd	0.0006415842
64	0xbd36b31f	-0.044604417
65	0xbcfc97a1	-0.030834021
66	0x3c8b6b11	0.017018827
67	0x3cc27227	0.023736073
68	0xbdd91aa6	-0.10600786
69	0xbd82d581	-0.06388379
70	0x3d9a1bbf	0.075248234
71	0x3accaf1b	0.001561615
72	0x3bf85d04	0.0075794477
73	0xbc6580dc	-0.014007773
74	0xbd7bfb40	-0.061518908
75	0xbd646c4a	-0.055767335
76	0xbd67e2f8	-0.05661294
77	0xbce140a9	-0.027496653
78	0xbd278797	-0.040900793
79	0xbd947acd	-0.07249985
80	0xbdd93552	-0.10605873
81	0xbd14383f	-0.036186453
82	0xbd0145e7	-0.031560805
83	0x3caa9001	0.02082062
84	0xbd145437	-0.036213126
85	0xbd45d830	-0.048301876
86	0x3db0d4a1	0.08634306
87	0xbcfdacf9	-0.030966269
88	0xbc8e90fe	-0.017403122
89	0xbc7ccd95	-0.015429874
90	0x3cbf445c	0.023348026
91	0x3c2129b5	0.009836604
92	0x3bd926c7	0.006626937
93	0xbb2fb2d0	-0.0026809461
94	0x3bd31861	0.006442115
95	0xbd3c2a4a	-0.045938767
96	0xbca1d538	-0.019754991
97	0x3b60c418	0.0034296568
98	0xbbd1b945	-0.0064002597
99	0xbd1ddf56	-0.038543068
100	0xb9c46f28	-0.0003746685
101	0xbcba8447	-0.022768153
102	0xbd37223b	-0.04471038
103	0x3cdaf691	0.0267289
104	0xbc71484f	-0.014726712
105	0xbd0fc51d	-0.03510009
106	0x3d15f0b6	0.036606513
107	0x3d18c5f7	0.03729817
108	0x3bdf6b87	0.006818238
109	0x3d3b86c2	0.045782812
110	0x3d2d0c0d	0.04224782
111	0xbcfc0297	-0.030762954
112	0x3d93c305	0.072149314
113	0xbd570f75	-0.052504975
114	0xbcac6100	-0.021042347
115	0x3d94ab6b	0.07259258
116	0xbcf97f34	-0.030456163
117	0x3cd4e1f5	0.025986651
118	0xbcf1e760	-0.029529274
119	0x3ce306b3	0.027713155
120	0x3d724a7d	0.05915307
121	0x3c9ef5b6	0.019404273
122	0x3a34949a	0.00068885984
123	0xbd2ab30a	-0.04167465
124	0xbd2d82be	-0.042361014
125	0xbcd2cd5c	-0.025732689
126	0x3cc87071	0.024467679
127	0xbc8e36ab	-0.017360052
128	0xbc43ff74	-0.01196276
129	0x3cce31e1	0.025170268
130	0x3cb3549c	0.02189093
131	0xbd00aade	-0.03141295
132	0x3d638550	0.05554706
133	0x3de6c25f	0.11267542
134	0x3cdf0c90	0.02722767
135	0x3d00a66f	0.031408723
136	0xbbfd21e4	-0.0077249873
137	0x3c75b941	0.014997781
138	0xbc55db57	-0.013052783
139	0x3c92474a	0.017856259
140	0xbc6485cf	-0.013947918
141	0xba644317	-0.0008707507
142	0x3be99918	0.007128846
143	0x3ccb9002	0.024848942
144	0x3da17eac	0.07885489
145	0x3d06272a	0.032752194
146	0xbd84e019	-0.06488056
147	0x3a0b8fab	0.00053238374
148	0x3b961f95	0.0045814016
149	0x3c290f2b	0.010318558
150	0x3c2b9fcc	0.01047511
151	0x3c62d853	0.013845521
152	0x3c0aea13	0.008478659
153	0x3ca79629	0.020457344
154	0x3c811795	0.015758315
155	0xbc20dae5	-0.0098178135
156	0xbc0190ea	-0.007908085
157	0xbb7a5d1a	-0.0038202466
158	0x3b7129a2	0.0036798497
159	0xbb14dda9	-0.0022715128
160	0xbb8f56e6	-0.004374373
161	0xb985217a	-0.0002539268
162	0x3b00f32a	0.0019676187
163	0xbc25f792	-0.010129826
164	0x3cf7e1f5	0.030259112
165	0x3c5d9b99	0.013525867
166	0x3c3b0ebb	0.011417086
167	0x3be6913c	0.0070363563
168	0xba5cb1f9	-0.0008418854
169	0xbc6d4a73	-0.014483082
170	0xbc5cea07	-0.013483531
171	0x3c93cb17	0.018041177
172	0x3d1fcd97	0.039014425
173	0x3cb877b5	0.022518018
174	0xbc958848	-0.01825346
175	0x3c24f90c	0.010069143
176	0xbc3e7a92	-0.011625903
177	0xbb45a3c1	-0.003015742
178	0xbcbcd38f	-0.023050098
179	0xbb16b8cd	-0.0022998333
180	0x3c8b4cf2	0.017004464
181	0x3d63c022	0.055603154
182	0xbc3e4935	-0.011614134
183	0x3c9ebf12	0.019378219
184	0x3bb274e7	0.0054460648
185	0xbca68874	-0.020328738
186	0xbbdd7029	-0.0067577553
187	0xba0f9f01	-0.00054787105
188	0xba075e5f	-0.00051639037
189	0xbd70a24d	-0.058748532
190	0xbcf67c52	-0.030088577
191	0xbcbdbf1c	-0.023162417
192	0xbc459cb2	-0.012061285
193	0xbcaf1798	-0.021373555
194	0xbcc24cdd	-0.023718292
195	0xbc53890d	-0.012911093
196	0xbccd23dc	-0.025041513
197	0xbd219b96	-0.03945502
198	0xbc9844c2	-0.018587474
199	0x3d544f32	0.05183334
200	0x3bbb2fb0	0.005712472
201	0xbbb730b7	-0.005590524
202	0x3c3761de	0.011192767
203	0x3c6dc72e	0.01451282
204	0x3c4348b4	0.011919189
205	0xbd4004ac	-0.046879455
206	0x3c3012ae	0.010746641
207	0x3d06f609	0.03294948
208	0xbcdcec18	-0.026968047
209	0xbd78e59f	-0.06076586
210	0xbcecb8b8	-0.028896675
211	0x3986e412	0.00025728397
212	0xbb10a08c	-0.002206835
213	0x3c860376	0.016359072
214	0x3cf6c63b	0.03012382
215	0xbc9f36b5	-0.019435266
216	0xbbc72486	-0.006077352
217	0x3d180abd	0.037119616
218	0x3d1ac336	0.037783824
219	0xbdc6ffd9	-0.09716768
220	0xbc93c4d7	-0.018038196
221	0x3dd0209f	0.10162472
222	0xbc828486	-0.015932333
223	0xbd521b6e	-0.05129569
224	0x3d32cfaa	0.043655075
225	0xbd88cd6a	-0.066798046
226	0xbbcba07a	-0.0062141987
227	0x3c226d52	0.009913759
228	0xbca8e07f	-0.02061486
229	0x3b55bf86	0.0032615378
230	0xbd2d8679	-0.04236457
231	0x3d099d08	0.033597022
232	0xbc7b724b	-0.015347074
233	0x3c706f26	0.014674937
234	0xbd914373	-0.07092943
235	0xbbcedc7d	-0.0063129053
236	0xbdb3756b	-0.0876263
237	0xbcbabf83	-0.022796398
238	0x3d8e5bdc	0.069511145
239	0x3c161323	0.009159836
240	0xbca87082	-0.02056146
241	0x3d6178a4	0.055046692
242	0x3ca0cd07	0.019629015
243	0x3aac331d	0.0013137792
244	0x3af377a9	0.001857509
245	0x3acb30fe	0.0015502272
246	0xbad327f1	-0.0016109926
247	0xba9bb6f2	-0.0011880083
248	0x39e66ec2	0.0004395154
249	0xbaf15e39	-0.0018414921
250	0xba73d1c9	-0.0009300975
251	0xba2b1674	-0.0006526478
252	0x3aefc1ce	0.0018292011
253	0x3abb4be5	0.0014289586
254	0x3a63d7b8	0.00086915074
255	0xbaa4dfdc	-0.0012578922

bias f4 [32]
0	0xbcc0f4fb	-0.023554316
1	0x396353fe	0.00021679697
2	0x3cb8ff29	0.022582607
3	0x3cbb76af	0.022883741
4	0xbc40f639	-0.011777454
5	0xbc32c1ed	-0.010910493
6	0xbcc6a91c	-0.02425056
7	0xbbdede9d	-0.00680144
8	0x3cc46cb4	0.023977615
9	0x3c9dc8fa	0.019260872
10	0xbc0796e7	-0.008275724
11	0xbc0c3a20	-0.00855878
12	0x3c4f33d8	0.012646638
13	0xbc565dab	-0.013083856
14	0xbbc46668	-0.005993653
15	0xbc5001e0	-0.01269576
16	0x3c54065a	0.012940967
17	0x3cb57729	0.022151547
18	0x3c2be4bc	0.010491546
19	0x3c88d717	0.016704125
20	0x3c351954	0.011053402
21	0x3c47da26	0.012198007
22	0x3b785000	0.003788948
23	0xbba31d0e	-0.004977829
24	0xbc9b45be	-0.018954154
25	0x3b868f5f	0.0041064466
26	0x3c67e2b8	0.014153175
27	0xbc88ab31	-0.016683193
28	0x3bb078aa	0.005385478
29	0xbb709d76	-0.0036714948
30	0x3c47bc89	0.012190946
31	0x3c734194	0.014847178

weight f4 [16, 32, 3, 3, 3]
0	0xbd7af5c0	-0.06126952
1	0x3d997755	0.07493464
2	0xbbcc40f1	-0.0062333276
3	0xbdd359b7	-0.10319846
4	0xbd25d01d	-0.040481675
5	0x3ba48bcc	0.005021548
6	0x3c90cff3	0.017677283
7	0x3ca5713a	0.020195592
8	0xbc3106da	-0.010804856
9	0xbd086d44	-0.03330733
10	0xbc48ff9f	-0.012267976
11	0xbc07041b	-0.008240725
12	0x3d59bd4f	0.053159054
13	0x3bfe7133	0.0077649592
14	0x3ccbca00	0.024876595
15	0x3b44df3c	0.0030040285
16	0x3bd6a7df	0.0065507735
17	0x3b20e39c	0.0024549728
18	0x3c2eead2	0.010676103
19	0x3c853f1a	0.01626544
20	0x3ccfe164	0.02537603
21	0xbc8875ad	-0.016657675
22	0xbd9b695b	-0.07588454
23	0x3c64dee5	0.013969158
24	0x3d4e422f	0.050356086
25	0x3b84cf60	0.0040530413
26	0xbd342beb	-0.043987196
27	0x3d930cf8	0.07180208
28	0xbc17fb8d	-0.009276283
29	0x3b08c244	0.0020867744
30	0xbc1d3fd1	-0.009597735
31	0x3a9d0474	0.0011979477
32	0x3c08edd8	0.008357488
33	0x3c6f98df	0.01462385
34	0x3b87bfbf	0.004142731
35	0x3cf87550	0.030329376
36	0xbcf6255b	-0.03004711
37	0x3c62bfd6	0.013839683
38	0x3d3f75ad	0.046743084
39	0xbc25adea	-0.010112265
40	0xbbed29f6	-0.007237668
41	0xbd24fc2c	-0.040279552
42	0x3c9db94d	0.019253397
43	0x3ca88cc2	0.020574931
44	0xbbdf1c7c	-0.0068088155
45	0xbc2360c4	-0.009971801
46	0xbc1caa26	-0.009562051
47	0xbd642fcb	-0.05570964
48	0x3b0eebbd	0.0021807991
49	0x3c1d62bc	0.00960606
50	0xbd037c82	-0.03210116
51	0x3ce4287b	0.027851334
52	0xbad113e9	-0.0015951368
53	0x3cd9db2f	0.026593773
54	0x3c9539ee	0.0182161
55	0x3d4b9bec	0.049709246
56	0x3d2bd64a	0.04195241
57	0xbcf64eaf	-0.030066816
58	0xbd163805	-0.03667452
59	0xbc9fa79d	-0.019489104
60	0xbd055732	-0.03255386
61	0x3c95d55f	0.01829022
62	0x396d2967	0.00022617505
63	0xbd7092c0	-0.0587337
64	0x3c468867	0.012117482
65	0xbd29dc3a	-0.04146979
66	0x3d8d409f	0.06897091
67	0xbc67f54b	-0.0141576035
68	0xbab62ade	-0.0013898273
69	0xbd74c231	-0.059755508
70	0xbd6a71b0	-0.057237327
71	0xbcd8d672	-0.026469443
72	0x3c8cb8bc	0.017177932
73	0xbd0d38c1	-0.034477953
74	0x3ddf7df3	0.10912695
75	0x3d3e80c4	0.04650952
76	0xbcc7ccc4	-0.024389632
77	0xbcbd3286	-0.02309538
78	0xbd08a077	-0.033356156
79	0x3d0a6625	0.03378882
80	0x3d82b025	0.06381253
81	0xbc5f7eee	-0.013641102
82	0xbbb9b20a	-0.005666976
83	0x3d3bbb53	0.045832943
84	0xbd52f068	-0.0514988
85	0x3df608c1	0.120133884
86	0xbc578ebb	-0.013156588
87	0xbc1a8b50	-0.009432629
88	0xbce91396	-0.028451722
89	0x3d1bcc9e	0.038036935
90	0x3c96d152	0.018410359
91	0xbcce4d72	-0.025183413
92	0x3cc329d2	0.023823652
93	0x3d529ce1	0.051419143
94	0xbd34370c	-0.04399781
95	0x3d87c085	0.06628517
96	0x3dcfdd1e	0.10149597
97	0xbd5dbfa6	-0.05413785
98	0xbcdc4393	-0.02688769
99	0x3d942124	0.072328836
100	0x3a6020f8	0.00085498346
101	0xbc8106a8	-0.015750244
102	0x3c20acab	0.009806792
103	0x3c129880	0.008947492
104	0x3d424e07	0.047437694
105	0x3cffbb77	0.03121732
106	0x3da3e797	0.08003157
107	0x3d4ac64b	0.049505513
108	0x3c14e74b	0.009088348
109	0x3b83af8b	0.004018729
110	0xbc3e2aac	-0.011606853
111	0xbb762e65	-0.0037564274
112	0x3bfb7b39	0.0076746014
113	0x3a57df4a	0.0008234872
114	0xbc3c1203	-0.011478904
115	0xbb864839	-0.004097965
116	0xbb5a54c1	-0.0033314677
117	0xba36a89a	-0.00069678726
118	0x3a4d98c0	0.0007842891
119	0x3c009020	0.007846862
120	0x3b15203a	0.0022754804
121	0x39eaf899	0.00044817178
122	0xbb02ad08	-0.001993956
123	0xbb01c527	-0.001980135
124	0x3bd6cc5f	0.0065551247
125	0xbbe7190b	-0.007052546
126	0xbaa40dfa	-0.0012516372
127	0xb9ac7434	-0.00032892975
128	0xbbe620e5	-0.0070229643
129	0x388ddb52	6.7642555e-05
130	0x3a8404b5	0.0010072204
131	0x3b2680a6	0.002540627
132	0xbac7a1eb	-0.001523075
133	0xb913e4fa	-0.00014104313
134	0xb9f51608	-0.00046746456
135	0xbdc5a2bd	-0.096501805
136	0xbdbebb6b	-0.09313091
137	0xbc1521ea	-0.009102324
138	0xbcd0b259	-0.025475668
139	0x3d1ccd3c	0.038281664
140	0x3d7db6cc	0.061941907
141	0xbd19354c	-0.037404343
142	0xbd6aacdc	-0.057293758
143	0xbca4b6b7	-0.020106656
144	0x3cdef449	0.027216094
145	0x3bac882f	0.005265258
146	0xbd184db2	-0.03718347
147	0xbcca5115	-0.024696866
148	0xbbe0b890	-0.006857939
149	0x3ccd8169	0.025086122
150	0xbd84f712	-0.064924374
151	0x3c7970bf	0.015224635
152	0xbd4f81aa	-0.050660767
153	0xbd93701a	-0.07199116
154	0x3ba48469	0.0050206673
155	0xbace129b	-0.0015722098
156	0x3d27477c	0.040839657
157	0xbd14a9cb	-0.03629474
158	0xbd4fb103	-0.05070592
159	0x3cc2d5f4	0.023783661
160	0xbd80d6e3	-0.062909864
161	0x3d0d3f54	0.034484223
162	0x3cb2341d	0.021753365
163	0xbbf34b11	-0.00742472
164	0x3c1d8e49	0.009616443
165	0xbd29140c	-0.041278884
166	0xbd509167	-0.050919916
167	0xbccc4551	-0.024935396
168	0x3c9f62bd	0.019456262
169	0x3c917846	0.017757546
170	0x3b0df525	0.002166101
171	0xbda059c7	-0.07829624
172	0xbd438bac	-0.047740623
173	0xbba0806d	-0.004898122
174	0xbb5d8cf6	-0.0033805943
175	0xbd469761	-0.04848421
176	0xbd0209ba	-0.031747557
177	0x3c836de3	0.016043609
178	0x3b90dfa0	0.0044211894
179	0xbd576038	-0.052581996
180	0xbacb083d	-0.0015490126
181	0x3d71a0c1	0.058991197
182	0xbc232eb4	-0.009959865
183	0xbc2d481b	-0.010576273
184	0xbc9a058d	-0.018801475
185	0x3d879219	0.06619663
186	0xbbfdf721	-0.0077504073
187	0xbd5370af	-0.051621135
188	0xbcc7dff7	-0.024398787
189	0x3be8770c	0.0070942696
190	0xbcd8e762	-0.02647752
191	0xbc0f2b02	-0.008738281
192	0xbb4008e1	-0.0029302167
193	0xbb3c4427	-0.0028727145
194	0xbcd2f250	-0.02575031
195	0xbc96a882	-0.018390898
196	0xbb1593fb	-0.00228238
197	0xbacae843	-0.0015480596
198	0xbcdee474	-0.027208544
199	0x3ced7edb	0.028991153
200	0x3cac0c4b	0.021001955
201	0xbc7c0953	-0.015383082
202	0xbac13eac	-0.0014743409
203	0xbc9bc56d	-0.019015038
204	0xbc4c21d4	-0.012459237
205	0xbcabe88a	-0.020984907
206	0xbc992a5e	-0.01869696
207	0xbc853ccd	-0.016264344
208	0xbbbd1bf1	-0.005771153
209	0x3bf45e46	0.0074575273
210	0xbbb44c2b	-0.005502244
211	0x3c69ac2a	0.0142622385
212	0x3b71af4b	0.0036878164
213	0xbc1f310f	-0.009716286
214	0xbc9a6e27	-0.018851353
215	0x3a873785	0.0010316229
216	0x3d05c771	0.032660905
217	0xbd312620	-0.04324925
218	0x3b93702d	0.0044994564
219	0x3d46e0d5	0.04855426
220	0xbd1898ea	-0.037255205
221	0xbca2468e	-0.019809034
222	0x3d8c199a	0.068408206
223	0x3cf6c0d7	0.03012125
224	0xbd21ee3c	-0.03953384
225	0x3d2a4675	0.0415711
226	0x3d0a9044	0.03382899
227	0x3db2cd82	0.08730604
228	0x3adb11cb	0.0016713677
229	0xbc602fc0	-0.0136832595
230	0xbc1ab6b0	-0.00944297
231	0xbc8b35c7	-0.016993416
232	0x3d5f2836	0.054481708
233	0x3c99e73e	0.018787023
234	0xbd1ec990	-0.038766444
235	0xbd41e213	-0.04733474
236	0xbc8335e8	-0.016016915
237	0x3cb65ac4	0.022260077
238	0xbd48e6c6	-0.049048208
239	0xbd3e8a1f	-0.04651844
240	0xbcbde340	-0.02317965
241	0x3c86e30a	0.016465683
242	0x3c6449e8	0.013933636
243	0xbc3cba51	-0.011519031
244	0x3ba8432d	0.005134961
245	0xbcec507f	-0.028846977
246	0x399fb76e	0.0003046351
247	0x3b9ec614	0.00484539
248	0x3c074404	0.008255962
249	0xbc5eae95	-0.013591428
250	0x3d3d44c1	0.046208147
251	0x3c82fc3e	0.01598942
252	0xbd813e22	-0.06310679
253	0x3ccac025	0.024749825
254	0xbde3cdb7	-0.11123221
255	0x3bd38633	0.006455207

bias f4 [16]
0	0x3b8cb4ca	0.0042940127
1	0x3c9d00d4	0.019165434
2	0x3ca96b44	0.020681031
3	0x3baaf160	0.0052167624
4	0x3c7fff1b	0.015624787
5	0x3ca2a581	0.019854309
6	0xba911836	-0.0011069837
7	0x3bbd9396	0.005785416
8	0x3aaf1b08	0.0013359496
9	0x3cd41dd6	0.025893133
10	0x3cf29cb5	0.02961574
11	0x3c0037a6	0.007825768
12	0x3c107b6d	0.0088184895
13	0x3bc6d08c	0.006067341
14	0x3c924b3e	0.017858144
15	0xbb641855	-0.0034804542

weight f4 [8, 16, 3, 3, 3]
0	0xbc5d3a3a	-0.013502652
1	0xbba9fa7a	-0.00518733
2	0x3d9de1b3	0.07709064
3	0xbd85130f	-0.06497776
4	0xbc757f72	-0.014983999
5	0xb8e60396	-0.000109679226
6	0xbe0b38e3	-0.1359592
7	0xbd6cd9e6	-0.05782499
8	0xbd92c385	-0.07166199
9	0x3c1af308	0.009457357
10	0xbd13ea66	-0.03611221
11	0xbcb64c80	-0.022253275
12	0xbdeeeaf9	-0.11665911
13	0xbd23084c	-0.039802834
14	0x3db1c99c	0.08681032
15	0xbd9316ba	-0.07182069
16	0x3d2be3e7	0.04196539
17	0x3d1b4e75	0.03791662
18	0xbd791bd9	-0.060817573
19	0x3db49ca6	0.08818941
20	0x3d696588	0.056981593
21	0x3de3fe07	0.11132436
22	0xbca13717	-0.01967959
23	0x3db3109e	0.08743404
24	0x3d1766e8	0.036963373
25	0x3d46e83b	0.048561316
26	0x3c6b90e4	0.014377806
27	0x3d2d2788	0.042274028
28	0xbdb34535	-0.087534346
29	0xbdc89ada	-0.097951606
30	0x3dba2153	0.09088387
31	0xbd90da76	-0.07072918
32	0x3da03b9c	0.078238696
33	0xbd3e32e3	-0.046435248
34	0xbda6d2b5	-0.08145658
35	0x3cdb6d65	0.026785562
36	0x3cbd84f6	0.02313469
37	0x3bd4f82e	0.006499312
38	0x3d341c10	0.043972075
39	0x3cc77893	0.024349486
40	0x3d4c5eaf	0.049894985
41	0xbdbf4524	-0.093393594
42	0xbdee0da8	-0.116236985
43	0x3b51a8d0	0.003199149
44	0xbdc5293c	-0.096270055
45	0xbe35e798	-0.17764127
46	0xbcd7aa56	-0.02632634
47	0x3db3269f	0.08747601
48	0x3d89f6fe	0.06736563
49	0xbdbf4809	-0.093399115
50	0xbc85d454	-0.016336598
51	0xbd51a822	-0.051185735
52	0xbd906bad	-0.070517875
53	0x3db60b69	0.08888895
54	0xbd30bdf4	-0.043149903
55	0xbcd2ff90	-0.025756627
56	0x3cbd54bd	0.023111695
57	0x3d2c142d	0.04201143
58	0x3deaf039	0.114716
59	0x3ddb50f1	0.10708798
60	0x3c7794f1	0.015111194
61	0x3d01a99d	0.031655896
62	0xbdc4fa44	-0.09618047
63	0x3cf7ec99	0.030264186
64	0xbc82b0aa	-0.01595338
65	0xbd3b8d0d	-0.045788813
66	0x3d887545	0.066629924
67	0x3d891fe1	0.066955335
68	0x3c9fc8a1	0.019504847
69	0xbd1b64ee	-0.03793805
70	0xbd3f6d7f	-0.046735283
71	0x3cbc1be8	0.022962525
72	0x3c91dda8	0.01780589
73	0x3dd6ab4f	0.10481893
74	0x3cde3d01	0.027128698
75	0xbad2aa78	-0.0016072532
76	0xbc910f08	-0.017707363
77	0x3d72b634	0.059255794
78	0x3d9d5b45	0.07683424
79	0xbcb05864	-0.021526523
80	0x3c794cdd	0.01521608
81	0x3d70278e	0.058631472
82	0x3cd3318c	0.025780462
83	0x3d49c86b	0.0492634
84	0xbc6102bb	-0.013733561
85	0xbd5b93e9	-0.053607855
86	0x3c56c372	0.013108121
87	0xbdd84b4d	-0.105612375
88	0x3dcdfd29	0.10058052
89	0x3d5e78c7	0.0543144
90	0xbcbc7cbf	-0.023008702
91	0xbd1aca12	-0.037790366
92	0xbd6f3025	-0.058395524
93	0x3d70ba84	0.058771625
94	0xbce8df18	-0.028426692
95	0x3daa37ea	0.08311446
96	0x3dc05ea7	0.093930535
97	0x3d4cf1fb	0.050035458
98	0xbd7f4a02	-0.06232644
99	0x3c8a581f	0.016887723
100	0x3d051928	0.032494694
101	0x3bf2c453	0.0074086576
102	0xbc77090c	-0.015077841
103	0x3dd194c1	0.10233451
104	0xbd4a1a4c	-0.049341485
105	0xbdd4f3ec	-0.10398087
106	0x3d883533	0.06650772
107	0x3d5f4a00	0.05451393
108	0x3d9b4b65	0.0758274
109	0xbe191bd9	-0.1495203
110	0xbd3a89d6	-0.045541607
111	0x3cc455cb	0.02396669
112	0x3d1aac68	0.037762076
113	0xbb02269a	-0.0019859434
114	0x3dd757c9	0.105147906
115	0x3c9d3fd0	0.019195467
116	0x3e0186ac	0.1264903
117	0xbd3180f1	-0.04333586
118	0xbc6cf80f	-0.014463439
119	0xbd469912	-0.048485823
120	0x3dfed919	0.12443752
121	0xbc2efb9d	-0.0106801065
122	0x3b2d189e	0.0026412378
123	0xbd3d869f	-0.046270963
124	0xbce9ac19	-0.028524445
125	0x3ddfcf71	0.10928238
126	0x3dfd3be0	0.12364936
127	0xbd362c9c	-0.044476137
128	0x3d47f8e8	0.04882136
129	0x3d8b1541	0.06791163
130	0x3c044639	0.008073383
131	0x3bba1bc5	0.00567958
132	0xbc8f5088	-0.017494455
133	0xbb45798f	-0.003013227
134	0xbdcc1228	-0.099644005
135	0x3da6276b	0.08112987
136	0x3d6b7599	0.057485197
137	0x3d0b7e2f	0.034055885
138	0x3d9bcce1	0.07607437
139	0xbc8d3c70	-0.017240733
140	0x3c979ec7	0.018508328
141	0xbcc7cc4b	-0.024389407
142	0xbd14a224	-0.03628744
143	0x3ce44ec7	0.027869595
144	0x3da45dbf	0.08025693
145	0x3cf8395a	0.030300785
146	0x3d9e0f86	0.077178046
147	0x3ce5c3fb	0.028047552
148	0xbe2a341e	-0.16621444
149	0xbce3d56f	-0.027811734
150	0x3d5cbf9e	0.053893678
151	0xbb80c85e	-0.0039301356
152	0x3c8ab39a	0.016931344
153	0x3d005e3f	0.03133988
154	0x3d047c89	0.03234533
155	0x3dab5604	0.083660156
156	0xbd1e9842	-0.038719423
157	0xbc8f03de	-0.017457899
158	0x3d776f7b	0.06040905
159	0xbde8bfc4	-0.113647014
160	0xbdf1b5d0	-0.11802256
161	0x3d57ca5c	0.05268322
162	0x3cbad3e9	0.022806125
163	0xbc4e39e5	-0.012587045
164	0xbd0aa3b1	-0.033847515
165	0xbca9e5cb	-0.020739457
166	0x3d9616d0	0.0732857
167	0xba60a768	-0.00085698674
168	0x3d9c9197	0.076449566
169	0xbdbabf42	-0.09118511
170	0xbd181faf	-0.03713959
171	0xbd87c5fb	-0.06629559
172	0x3af51000	0.0018696785
173	0xbd1fe883	-0.0390401
174	0xbd627206	-0.055284522
175	0xbd45ccd1	-0.04829103
176	0xbd447b75	-0.0479693
177	0xbc356a84	-0.011072759
178	0xbde0c43a	-0.10974927
179	0x3d88029b	0.06641122
180	0xbce3bb97	-0.02779941
181	0x3d81dcfb	0.06340977
182	0xbc8e6b51	-0.017385157
183	0xbd2f75d4	-0.04283698
184	0xbd7a5836	-0.06111928
185	0xbd387ba7	-0.0450398
186	0xbc138666	-0.009004211
187	0xbd0eaad9	-0.0348309
188	0xbd47a493	-0.048740935
189	0x3cad9b04	0.021192081
190	0x3c870af9	0.016484724
191	0x3d8292b1	0.063756354
192	0xbd677700	-0.05650997
193	0xbd51c77a	-0.051215626
194	0xbc6e3aa7	-0.014540351
195	0x3cd396aa	0.025828678
196	0x3bccf567	0.00625484
197	0x3cd99f53	0.02656523
198	0x3d2cfb93	0.042232107
199	0x3d45fad8	0.048334926
200	0xbc7a48bf	-0.015276133
201	0xbce6d037	-0.028175456
202	0xbcfbdbb3	-0.03074441
203	0xbc06bf6d	-0.00822435
204	0xbd830d82	-0.06399061
205	0xbc4f00a9	-0.012634435
206	0xbc3b244a	-0.011422226
207	0xbba26b93	-0.0049566715
208	0x3d0e37ba	0.034721114
209	0xbbb18ade	-0.0054181656
210	0xbc81d5e9	-0.01584907
211	0xbcebaecf	-0.028769879
212	0x3d8c38af	0.06846749
213	0xbc8cc2bd	-0.017182702
214	0xbba6a324	-0.005085366
215	0xbc1498b0	-0.009069607
216	0x3b1f6fec	0.0024328185
217	0x3d1c30b2	0.038132377
218	0xbd33418d	-0.043763686
219	0xbcbe4276	-0.02322505
220	0x3c30fdd8	0.010802709
221	0xbb604010	-0.0034217872
222	0x3ba0b70d	0.004904634
223	0x3cc14256	0.023591202
224	0xbddbe789	-0.10737521
225	0xbb947a36	-0.0045311702
226	0xbccb938d	-0.024850631
227	0x3b0c720d	0.0021430284
228	0x3c384a06	0.011248117
229	0xbcca6b52	-0.024709377
230	0xbd5e4f52	-0.054274864
231	0x3c7366a6	0.014856016
232	0x3d27185b	0.04079471
233	0xbb17bd4d	-0.0023153604
234	0xbc401666	-0.01172409
235	0x3cc10223	0.02356059
236	0xbd898944	-0.067156345
237	0x3c1fdd3d	0.009757337
238	0xbc030c32	-0.007998513
239	0xbc7e046e	-0.015503986
240	0xbb092b03	-0.0020930178
241	0x3d1a86b4	0.03772612
242	0x3d25703e	0.040390246
243	0x3c4e09c8	0.012575574
244	0xbde06a72	-0.10957803
245	0x3d1efb91	0.03881413
246	0x3d0d93eb	0.034564894
247	0x3daedb10	0.085378766
248	0x3d216ba8	0.03940931
249	0xbd65baf0	-0.05608648
250	0xbd5ff8be	-0.05468058
251	0x3c63c923	0.013902935
252	0xbdd8b06a	-0.10580523
253	0x3d55bf31	0.052184287
254	0x3db8f9f1	0.090320475
255	0x3d6d9906	0.058007263

bias f4 [8]
0	0x3649457a	2.9991775e-06
1	0xb702ee6e	-7.804118e-06
2	0x360688e0	2.0047228e-06
3	0x36943b5d	4.4176545e-06
4	0xb6b4d108	-5.3887525e-06
5	0x36f867c5	7.4030563e-06
6	0x36e6cf88	6.878694e-06
7	0x3697146e	4.502529e-06
