code4step3/FeatureLearningModel.pt (torch_old, 199683 bytes, 8 tensors)

weight f4 [8, 1, 3, 3, 3]
-0.00051775854 -0.0005191023 -0.00014155691 -0.00044580328 -0.00050138833 -0.00013989575 -0.00041513672 -0.00052233366
-0.00053495564 -0.0005643325 -0.0006554298 -0.00027823588 -0.00050110265 -0.000614317 -0.00023837126 -0.000464433
-0.00065434404 -0.00079108507 -0.0006608782 -0.0008233426 -0.00049230445 -0.0005886439 -0.00080095825 -0.0009703295
-0.00054036494 -0.0008197323 -0.0009792981 -0.3836158 -0.28680786 0.111132264 -0.20891792 -0.045689106
-0.13251708 0.16213152 -0.052632924 0.046793234 0.37692648 0.15206191 0.07226547 -0.04647908
0.22761828 -0.13725242 0.13674454 -0.22546476 -0.031693522 -0.102045804 0.22004884 0.2233884
0.18413904 -0.1801069 -0.10636378 0.286195 0.072849534 -0.062872134 -0.05105827 -0.045544747
-0.06380175 -0.017686633 -0.03463099 -0.08833907 -0.038196202 -0.04703418 -0.06486344 -0.027261497
0.150308 -0.016448017 -0.03670911 -0.04792205 0.019400856 -0.049118076 -0.03795362 -0.05009074
-0.08565104 0.3190712 -0.034401543 -0.08674171 -0.09292774 0.057792056 -0.058405485 -0.055591587
-0.0034029859 0.33620125 -0.10492106 -0.014534248 0.044321217 0.20492798 -0.060977776 -0.14697692
-0.13191563 -0.123358205 -0.19689395 0.0901858 -0.22869875 -0.037558928 0.061280858 0.139281
-0.07781181 -0.026014332 -0.001934447 0.030224249 -0.10601268 -0.066628695 -0.05215155 -0.042175982
0.049251538 -0.04198057 -0.08194678 -0.050240614 -0.055015113 -0.112165056 -0.17214282 -0.14578374
-0.11614715 -0.15327045 0.0037624282 -0.060999442 0.31436378 -0.08520128 -0.09324758 0.100215726
0.06753701 -0.0061751693 -0.019016718 -0.042847615 0.02905775 -0.16921067 0.14413646 0.19160242
-0.011428158 -0.055616725 0.008771941 -0.19267154 -0.0042469227 -0.01877311 0.040451474 -0.16593997
-0.13141076 -0.11342925 0.26184028 -0.085253164 -0.075997226 -0.15919788 -0.049107946 -0.096043915
-0.1210663 0.04732133 0.10169275 -0.14971024 0.092554644 0.034269772 -0.045687966 0.014839213
-0.07341907 -0.004414498 0.008419196 -0.12865022 -0.04631883 0.005736586 0.03680483 -0.19141282
-0.07638597 -0.0569757 0.06573749 -0.03245844 -0.07228813 0.086087964 -0.018140415 -0.06661641
-0.24915197 0.031533916 -0.120503716 0.17283352 0.024546511 0.060616538 0.2679851 -0.07602193
-0.044459235 -0.019628644 -0.05334348 -0.08412714 0.030148914 -0.10978802 0.022957396 -0.032099836
-0.034211803 -0.006927507 -0.04581297 -0.09889802 -0.0902929 -0.07913641 0.022620196 -0.070505604
-0.037815183 -0.039659407 0.09396919 0.050717037 -0.06873209 0.08142431 -0.059168853 0.00047057818
-0.07705303 -0.083659366 -0.051469922 -0.084707335 -0.008456192 -0.062994115 0.1423239 -0.07807104
-0.052840285 -0.08428228 -0.051759765 -0.10872011 -0.048699696 0.00344147 -0.07090056 0.03964816
00000000: 30ba 07ba 5e14 08ba e56e 14b9 b4ba e9b9
00000010: 9a6f 03ba fbb0 12b9 b5a6 d9b9 38ed 08ba
00000020: 443c 0cba b7ef 13ba 26d1 2bba 30e0 91b9
00000030: 6e5c 03ba 1e0a 21ba 4cf3 79b9 247f f3b9
00000040: 4988 2bba d260 4fba c93e 2dba 96d5 57ba
00000050: fe0d 01ba 394f 1aba 66f7 51ba b65d 7eba
00000060: 47a7 0dba 4ee3 56ba cb5b 80ba 4a69 c4be
00000070: 7bd8 92be 5099 e33d 94ee 55be 8024 3bbd
00000080: 8fb2 07be ce05 263e 9f95 57bd 43aa 3f3d
00000090: 82fc c03e 1eb6 1b3e ebff 933d d960 3ebd
000000a0: c414 693e e68b 0cbe c306 0c3e 3ce0 66be
000000b0: 11d1 01bd 64fd d0bd 7c54 613e eebf 643e
000000c0: f28e 3c3e f16d 38be 41d5 d9bd 2788 923e
000000d0: 2332 953d 1bc3 80bd 7a22 51bd 218d 3abd
000000e0: 7eaa 82bd 8fe3 90bc 3ad9 0dbd 1deb b4bd
000000f0: 9f73 1cbd eaa6 40bd 20d7 84bd 8153 dfbc
00000100: 57ea 193e febd 86bc 4b5c 16bd e949 44bd
00000110: 8bee 9e3c 0930 49bd 4175 1bbd f32b 4dbd
00000120: d069 afbd 4d5d a33e a2e8 0cbd a3a5 b1bd
00000130: e650 bebd 5db7 6c3d 973a 6fbd 01b4 63bd
00000140: a104 5fbb 9222 ac3e dae0 d6bd 0e21 6ebc
00000150: 2a8a 353d a4d8 513e d5c3 79bd 1e81 16be
00000160: e414 07be 3aa3 fcbd 919e 49be 55b3 b83d
00000170: 0130 6abe 64d7 19bd a301 7b3d ae9f 0e3e
00000180: cc5b 9fbd 021c d5bc 458d fdba d898 f73c
00000190: 2d1d d9bd a074 88bd dd9c 55bd b9c0 2cbd
000001a0: fbbb 493d d1f3 2bbd b7d3 a7bd 1ac9 4dbd
000001b0: 8757 61bd cbb6 e5bd 3546 30be 5548 15be
000001c0: 8fde edbd eef2 1cbe 1293 763b 8dda 79bd
000001d0: 4af4 a03e 027e aebd 96f8 bebd e73d cd3d
000001e0: d850 8a3d 1359 cabb f3c8 9bbc fb80 2fbd
000001f0: 850a ee3c 9045 2dbe 8298 133e 6d33 443e
00000200: 2b3d 3bbc 5dce 63bd 30b8 0f3c b04b 45be
00000210: c529 8bbb 11ca 99bc 72b0 253d 2bec 29be
00000220: 8b90 06be 984d e8bd ee0f 863e 3699 aebd
00000230: 6fa4 9bbd c504 23be 6a25 49bd acb2 c4bd
00000240: 9cf1 f7bd 03d4 413d 4a44 d03d a44d 19be
00000250: 4a8d bd3d 765e 0c3d 4e23 3bbd 2c20 733c
00000260: bd5c 96bd 7ea7 90bb abf0 093c e2bc 03be
00000270: d0b8 3dbd f9f9 bb3b a9c0 163d b901 44be
00000280: 3f70 9cbd 5a5f 69bd 61a1 863d 24f3 04bd
00000290: cd0b 94bd e34e b03d 359b 94bc 2f6e 88bd
000002a0: b221 7fbe b529 013d a7ca f6bd 45fb 303e
000002b0: c415 c93c 0c49 783d 5835 893e 63b1 9bbd
000002c0: e31a 36bd 40cc a0bc b17e 5abd da4a acbd
000002d0: dbfa f63c 8bd8 e0bd 2611 bc3c 1e7b 03bd
000002e0: ad21 0cbd 2400 e3bb 61a6 3bbd 0c8b cabd
000002f0: 7ceb b8bd 4512 a2bd fd4d b93c 3e65 90bd
00000300: 18e4 1abd e771 22bd eb72 c03d abbc 4f3d
00000310: 69c3 8cbd cac1 a63d 0a5b 72bd efb7 f639
00000320: fbcd 9dbd 9a55 abbd 20d2 52bd 0a7b adbd
00000330: d78b 0abc 0f03 81bd 5bbd 113e b6e3 9fbd
00000340: 0e6f 58bd 309c acbd 0c02 54bd a6a8 debd
00000350: 5579 47bd 498a 613b 5034 91bd 1c66 223d

bias f4 [8]
-0.0027750384 -0.098499164 -0.05698447 -0.048517462 -0.005517279 0.0151072275 -0.08451356 -0.027650168
00000000: 6bdd 35bb eeb9 c9bd 8c68 69bd 3fba 46bd
00000010: 4aca b4bb 4e84 773c 7215 adbd 9b82 e2bc

weight f4 [16, 8, 3, 3, 3]
-1.2264134e-09 -6.4263986e-08 9.801841e-08 -5.9320787e-06 -2.7377631e-09 -4.645766e-13 -9.601631e-06 -5.614165e-08
5.071588e-10 2.9084777e-09 -3.34914e-11 -4.070961e-08 -2.1928854e-07 3.2446512e-10 6.450403e-13 -3.950094e-05
-7.84283e-07 -4.4761115e-09 -1.5499844e-11 -3.800807e-10 2.2212962e-11 -6.2474936e-09 -4.978593e-11 -4.2211137e-11
-1.46961875e-05 -3.839565e-06 6.6207924e-08 0.04601593 0.07054949 0.021998128 0.0064566615 0.09944382
0.053310625 -0.08976265 -0.019122452 -0.024017928 0.01962312 0.040003825 0.03103446 -0.023607474
0.014881617 0.013828403 -0.08106649 -0.088936105 -0.02483653 0.048891168 -0.013081665 -0.04837738
0.015520306 -0.058007162 0.0017387159 -0.0023542843 -0.033565555 -0.010518367 -0.024346173 -0.049198292
-0.06229581 -0.033539765 -0.039155997 -0.015981667 -0.07970752 -0.032279603 -0.020878155 -0.0024479132
-0.002845737 -0.0669547 -0.014856788 0.0020080511 -0.0037345623 -0.040198676 -0.06924822 -0.05835152
-0.021691745 -0.038404614 -0.037927702 0.016552465 0.010516049 0.0012509829 -0.00997972 -0.07238747
-0.08212674 -0.017199835 -0.032976497 -0.005025246 -0.060835265 -0.0366228 0.00019153963 -0.0119009195
0.023770042 -0.07951708 -0.051732503 -0.02410538 -0.008013856 0.0038489166 0.0017068882 0.063185535
0.034430534 -0.076363586 -0.015448903 0.008785836 -0.010220444 -0.0038691438 0.022862438 -0.065668084
-0.012400585 0.045152616 0.06612808 -0.010675366 -0.07777689 -0.117494434 -0.042209886 0.013108835
0.039572995 -0.053387325 0.052306816 -0.0020814396 -0.01694061 -0.031823684 -0.0053117913 0.0071786256
-0.060841326 -0.000776958 -0.020545462 0.057534967 0.12954362 0.037955683 -0.014993471 0.026178394
-0.059301507 -0.060809843 -0.11936625 0.03285071 -0.029852968 0.015185407 0.1078968 -0.035009105
0.036783442 0.061098937 -0.01988014 0.077902064 0.049008805 0.05370857 0.13221782 0.12627634
-0.042163517 0.037256155 0.0045924224 0.027109925 0.011875031 0.040195335 0.026838483 0.07828768
0.105931275 -0.021893907 -0.024071798 -0.06229623 -0.013802431 -0.036883872 -0.018849902 0.032259114
0.07516092 0.097762674 0.050240964 -0.060095206 -0.023338474 -0.053848624 -0.015022153 0.017047204
0.03667492 -0.0046842736 -0.008867385 0.09136343 -0.032798957 -0.031251837 -0.03346127 -0.05218776
-0.0007163961 -0.03683134 -4.768666e-05 -0.006374421 -0.041265838 -0.07104438 -0.044248596 -0.117188625
-0.06209552 0.04016179 -0.04395732 -0.050960563 0.059166815 -0.014026275 -0.027647512 0.016791351
-0.01318989 0.025320413 0.07467278 0.0019939137 0.011196243 0.039976344 -0.021656474 -0.03820533
-0.021697683 -0.029338943 -0.027962273 0.018409677 0.022518884 -0.022633186 -0.03446859 -0.02236112
0.029217353 0.07616706 -0.038065072 -0.03262587 -0.028399741 0.04829396 -0.06263029 -0.046109017
9.428207e-06 7.359057e-06 1.5765835e-06 6.9047283e-06 3.7769385e-06 3.6368277e-08 4.1917374e-06 9.009262e-07
-6.152543e-08 8.684218e-06 5.678857e-06 4.9757216e-07 2.1879168e-06 1.3136156e-07 -1.6946474e-08 2.7449224e-07
-3.3749036e-08 -2.5957052e-09 1.8115505e-06 3.132775e-07 -7.104057e-08 5.621376e-08 -1.1029467e-08 1.0260289e-09
-3.0126174e-08 -1.0191962e-09 -5.421128e-12 0.004431333 0.06572804 -0.15999621 0.045333523 0.062262744
-0.008933753 -0.08686238 -0.042201966 -0.1272807 0.024864921 -0.086076334 -0.10611349 0.016910132
00000000: 968e a8b0 8001 8ab3 317e d233 2b0c c7b6
00000010: 3d23 3cb1 46c4 02ab b116 21b7 6620 71b3
00000020: 2168 0b30 7bde 4731 f74b 13ae b1d8 2eb3
00000030: 9375 6bb4 6860 b22f 0d90 352b d0ad 25b8
00000040: 8487 52b5 4bcc 99b1 8c56 88ad 9af3 d0af
00000050: 2563 c32d 89a9 d6b1 f9f5 5aae 84a5 39ae
00000060: a58f 76b7 9dd5 80b6 312e 8e33 337b 3c3d
00000070: 407c 903d 6b35 b43c 6792 d33b 34a9 cb3d
00000080: 3e5c 5a3d 7bd5 b7bd b0a6 9cbc 3fc1 c4bc
00000090: aac0 a03c 0ddb 233d fb3b fe3c 7664 c1bc
000000a0: 07d2 733c 8790 623c 3006 a6bd 2224 b6bd
000000b0: fb75 cbbc 1b42 483d 7b54 56bc 5c27 46bd
000000c0: e248 7e3c eb98 6dbd a0e5 e33a 564a 1abb
000000d0: 097c 09bd 3b55 2cbc a071 c7bc 2684 49bd
000000e0: e429 7fbd fe60 09bd 0a62 20bd fceb 82bc
000000f0: b23d a3bd 9e37 04bd aa08 abbc 2b6d 20bb
00000100: 8b7f 3abb 8c1f 89bd e369 73bc 8299 033b
00000110: 8fbf 74bb 5ea7 24bd 03d2 8dbd 0102 6fbd
00000120: e3b2 b1bc 284e 1dbd 145a 1bbd 0999 873c
00000130: 824b 2c3c 05f8 a33a fb81 23bc e23f 94bd
00000140: 1032 a8bd abe6 8cbc 5d12 07bd d2aa a4bb
00000150: 662e 79bd ca01 16bd 07d8 4839 13fc 42bc
00000160: 64b9 c23c dad9 a2bd 76e5 53bd a578 c5bc
00000170: 8c4c 03bc 1b3e 7c3b aab9 df3a 6b67 813d
00000180: 0807 0d3d 8364 9cbd 651d 7dbc 78f2 0f3c
00000190: a673 27bc 7691 7dbb 024a bb3c fd7c 86bd
000001a0: d32b 4bbc f3f1 383d 296e 873d bbe7 2ebc
000001b0: 7d49 9fbd eca0 f0bd 46e4 2cbd 70c6 563c
000001c0: 4b17 223d abac 5abd ac3f 563d c368 08bb
000001d0: 09c7 8abc 8d59 02bd 890e aebb ad3a eb3b
000001e0: c134 79bd c5ac 4bba f54e a8bc c9a9 6b3d
000001f0: 15a7 043e 6b77 1b3d 2da7 75bc 1274 d63c
00000200: 23e6 72bd be13 79bd 4b76 f4bd 778e 063d
00000210: 368e f4bc 37cc 783c fff8 dc3d b565 0fbd
00000220: 3caa 163d e142 7a3d addb a2bc 1e8b 9f3d
00000230: 75bd 483d 84fd 5b3d 1c64 073e 964e 013e
00000240: a7b3 2cbd e999 183d 087c 963b a215 de3c
00000250: 7d8f 423c dda3 243d 61dc db3c 4b55 a03d
00000260: 7ff2 d83d da5a b3bc 3832 c5bc 552a 7fbd
00000270: 9723 62bc 8b13 17bd 1c6b 9abc 2222 043d
00000280: f8ed 993d cc37 c83d 78c9 4d3d 6426 76bd
00000290: 5430 bfbc 6090 5cbd 7a1f 76bc 94a6 8b3c
000002a0: 7138 163d 897e 99bb 8248 11bc c01c bb3d
000002b0: 3358 06bd ed01 00bd af0e 09bd d5c2 55bd
000002c0: 87cc 3bba 76dc 16bd 2903 48b8 85e0 d0bb
000002d0: 5e06 29bd b77f 91bd 043e 35bd 9700 f0bd
000002e0: df57 7ebd b080 243d 970c 34bd 06bc 50bd
000002f0: e758 723d 76ce 65bc 097d e2bc 048e 893c
00000300: 691a 58bc c16c cf3c 0bee 983d 52ac 023b
00000310: 7270 373c 3cbe 233d eb68 b1bc 317d 1cbd
00000320: 57bf b1bc 3958 f0bc 2311 e5bc e4cf 963c
00000330: 8679 b83c 3b69 b9bc f02e 0dbd ab2e b7bc
00000340: 3b59 ef3c 7afd 9b3d 1fea 1bbd b4a2 05bd
00000350: 93a6 e8bc e3cf 453d 4f44 80bd cfdc 3cbd
00000360: d72d 1e37 d1ed f636 ff9a d335 2aaf e736
00000370: 4f77 7d36 5833 1c33 c0a6 8c36 2dd7 7135
00000380: f61f 84b3 6fb2 1137 038d be36 e690 0535
00000390: 20d4 1236 640c 0d34 b191 91b2 ed5d 9334
000003a0: 75f3 10b3 2160 32b1 6724 f335 8830 a834
000003b0: f78e 98b3 af6f 7133 1c7c 3db2 2f04 8d30
000003c0: 1464 01b3 c713 8cb0 2ebd beac b734 913b
000003d0: 6c9c 863d 0cd6 23be a5af 393d 3807 7f3d
000003e0: e05e 12bc e7e4 b1bd f8db 2cbd df55 02be
000003f0: 85b1 cb3c ca48 b0bd 0852 d9bd 1e87 8a3c

bias f4 [16]
0.16393165 0.016777018 -0.012094628 -0.0017609264 0.022483312 -0.019140115 -0.00435876 -0.019403826
-0.0095534995 -0.03281853 -0.015721023 -0.048608832 0.037303504 -0.025028415 -0.01769162 0.009032039
00000000: b3dd 273e f56f 893c 8c28 46bc e3ce e6ba
00000010: ec2e b83c bbcb 9cbc eed3 8ebb c6f4 9ebc
00000020: 4886 1cbc b96c 06bd 60c9 80bc 0e1a 47bd
00000030: 8fcb 183d 6408 cdbc 04ee 90bc 1efb 133c

weight f4 [32, 16, 3, 3, 3]
-0.01456067 -0.005382415 -0.002852536 -0.009498062 -0.005963575 -0.012435994 0.0061230385 -0.002244566
-0.005861222 -0.016953966 -0.010218108 -0.0037984583 -0.009290314 -0.0020696453 -0.011887605 -0.0048624175
-0.0013835204 -0.010946442 -0.0065646507 -0.0012282238 0.0044236393 -0.007978804 -0.013962978 -0.008269274
-0.017835665 -0.02182207 -0.0011286022 -0.00950384 -0.013453012 -0.008434831 -0.007165997 -0.008334168
-0.0004974081 -0.0005461726 -0.0058673173 -0.0053264964 -0.018409293 -0.009445492 -0.012160733 -0.010673522
-0.0001586649 -0.008777102 0.002811539 0.00757112 -0.0010778893 -0.013954219 -0.012060851 -0.009020577
-0.009476689 -0.0030069447 -0.010941765 -0.00042822107 -0.0026269066 -0.007927373 5.4271e-40 -5.1025e-40
-2.42015e-40 1.62277e-40 -5.81717e-40 -4.82806e-40 1.74945e-40 7.2453e-41 3.34781e-40 5.27068e-40
5.02115e-40 2.32191e-40 4.20507e-40 5.19592e-40 2.91648e-40 -2.99645e-40 5.83516e-40 4.17744e-40
-4.93738e-40 2.97398e-40 -2.23782e-40 4.5527e-40 -5.60473e-40 -1.03583e-40 5.8047e-40 1.53647e-40
5.5075e-41 -1.19170385e-36 2.740433e-35 -2.5078767e-36 -1.6417419e-36 3.1474123e-36 2.030878e-36 -4.675327e-36
2.8872107e-38 3.1192744e-38 -1.3777971e-36 -1.0814028e-36 -3.343948e-36 6.791968e-38 -8.585639e-37 1.7465142e-36
-6.0666426e-37 -1.5376998e-36 -1.928412e-36 2.4840729e-36 -3.7673728e-37 1.8227594e-37 -7.773291e-39 -2.5529074e-35
-2.8006836e-36 -1.5996185e-36 7.580769e-38 -7.6926775e-37 -5.86927e-40 -4.3557e-40 3.44054e-40 1.96351e-40
3.80055e-40 2.4405e-40 3.5475e-40 6.5876e-41 2.2372e-40 2.35143e-40 -6.454e-41 6.16454e-40
1.14102e-40 5.24957e-40 1.70563e-40 5.44361e-40 -6.16612e-40 3.11685e-40 -3.99591e-40 -2.69957e-40
-2.6554e-40 5.62464e-40 5.4663e-41 -5.74923e-40 -4.32089e-40 -3.72324e-40 -2.30484e-40 1.5311784e-09
2.2476525e-09 -1.136531e-09 2.1931169e-11 -1.4026548e-09 6.4746924e-10 -3.7095629e-09 -8.061101e-09 1.0389956e-10
2.1413339e-10 -5.9008453e-08 3.2288174e-09 -1.3108633e-09 9.062641e-11 1.012905e-10 -5.02826e-08 4.5056783e-10
-4.764479e-10 7.090712e-12 -2.0720845e-08 3.156893e-09 7.9931874e-09 3.0190117e-12 -1.2368526e-10 -2.4247e-08
1.1514368e-12 -1.356653e-10 4.7047816e-21 -9.518033e-22 1.5830671e-21 8.146318e-21 4.477581e-22 -4.468542e-11
2.656582e-10 -8.5640167e-10 4.6542586e-10 -1.642362e-11 -7.5422706e-22 9.38001e-10 -6.4834593e-10 -1.1391141e-09
1.5111037e-11 5.5431573e-11 -7.210422e-11 -2.8794475e-12 -5.863539e-11 -5.857547e-10 -8.579832e-13 -2.6170828e-11
-4.7129983e-10 -7.1155365e-10 9.4915326e-12 -1.4793261e-16 -9.5094835e-11 3.0136242e-05 2.1418567e-05 -1.2216575e-08
-5.1408954e-08 0.0027331598 -1.3641553e-08 1.6583737e-05 0.000100439116 2.6767902e-08 0.0008246468 2.0878836e-08
-4.7435978e-07 0.0008508573 1.0540614e-08 1.6240719e-08 -1.6467276e-07 -1.31409195e-08 -1.8914013e-08 0.0024091026
-0.0030040657 -1.537505e-08 0.00092080125 5.0295377e-09 -8.8171387e-10 0.00010642236 1.0275162e-08 -0.0005907948
-2.58265e-40 1.15624e-40 -6.12992e-40 -4.14231e-40 -4.358e-40 -5.97696e-40 -3.39694e-40 -9.4648e-41
-4.82072e-40 5.41822e-40 -5.22448e-40 1.08709e-40 5.42692e-40 1.6297e-40 4.91613e-40 5.76364e-40
9.0392e-41 1.27057e-40 -3.94457e-40 -5.196e-40 5.54131e-40 3.38755e-40 -5.74895e-40 2.56473e-40
-5.86113e-40 -4.01543e-40 5.2147e-41 -0.0043230895 0.015371909 0.01053686 0.0070623327 0.015788874
0.010720379 0.012193817 0.010793188 0.0041072085 -0.0029197622 -0.0046291654 0.0018538645 0.00464108
00000000: e08f 6ebc f85e b0bb 9df1 3abb c29d 1bbc
00000010: 186a c3bb 57c0 4bbc c5a3 c83b 9219 13bb
00000020: 7e0f c0bb 0be3 8abc da69 27bc 8eef 78bb
00000030: 6736 18bc e3a2 07bb 3bc4 42bc ea54 9fbb
00000040: 3e57 b5ba b558 33bc 481c d7bb 5afc a0ba
00000050: 2df4 903b 88b9 02bc f9c4 64bc d97b 07bc
00000060: 1a1c 92bc 33c4 b2bc 9bed 93ba feb5 1bbc
00000070: 066a 5cbc 3f32 0abc bdd0 eabb 098c 08bc
00000080: 7e64 02ba 062d 0fba a042 c0bb e489 aebb
00000090: 16cf 96bc 44c1 1abc d03d 47bc ffdf 2ebc
000000a0: 495f 26b9 d6cd 0fbc cc41 383b 2817 f83b
000000b0: f747 8dba 3da0 64bc e09a 45bc 0bcb 13bc
000000c0: 1d44 1bbc 2910 45bb 1745 33bc dc82 e0b9
000000d0: 2e28 2cbb d0e1 01bc dbe8 0500 5f8e 0580
000000e0: a4a2 0280 5dc4 0100 9755 0680 de41 0580
000000f0: ade7 0100 f8c9 0000 3ca5 0300 40bd 0500
00000100: b177 0500 4187 0200 3494 0400 69a8 0500
00000110: ff2c 0300 4a43 0380 9b5a 0600 808c 0400
00000120: 5760 0580 063d 0300 d06f 0280 1cf5 0400
00000130: 5f1a 0680 bf20 0180 1d52 0600 4eac 0100
00000140: 8799 0000 06c2 ca83 d7b4 1106 b858 5584
00000150: f9a9 0b84 49e0 8504 9bc4 2c04 cedd c684
00000160: d831 1d01 57d4 2901 876b ea83 bcfd b783
00000170: 5f3c 8e84 1ce5 b801 bb13 9283 b693 1404
00000180: e96f 4e83 23d0 0284 180d 2484 5152 5304
00000190: 7232 0083 e519 7802 c6a4 5480 60bc 0786
000001a0: 7d41 6e84 9b14 0884 405e ce01 56e2 8283
000001b0: 1d64 0680 31be 0480 15bf 0300 5923 0200
000001c0: 7023 0400 50a8 0200 e6dc 0300 a3b7 0000
000001d0: a46f 0200 7c8f 0200 e9b3 0080 6cb6 0600
000001e0: 123e 0100 5eb7 0500 76db 0100 75ed 0500
000001f0: ddb6 0680 da64 0300 e659 0480 88f0 0280
00000200: 38e4 0280 ec1f 0600 6198 0000 a742 0680
00000210: 7db4 0480 e30d 0480 7f82 0280 8d71 d230
00000220: 1f75 1a31 2134 9cb0 9ae8 c02d 87c7 c0b0
00000230: 99f9 3130 52eb 7eb1 197d 0ab2 417a e42e
00000240: 3171 6b2f 7b70 7db3 f5e1 5d31 e729 b4b0
00000250: 224a c72e 7bbd de2e 4ef6 57b3 c9b3 f72f
00000260: 0af7 02b0 757b f92c 9ffd b1b2 a6f0 5831
00000270: 6952 0932 ae71 542c 4efe 07af b847 d0b2
00000280: e20c a22b 632a 15af dbbd b11d 1bd5 8f9c
00000290: f139 ef1c 2de1 191e 9b53 071c 4f87 44ae
000002a0: 110c 922f e967 6bb0 dede ff2f b476 90ad
000002b0: 7ef3 639c faea 8030 4a37 32b0 048f 9cb0
000002c0: 08eb 842d 67ca 732e 118f 9eae 849f 4aac
000002d0: caf0 80ae d302 21b0 3580 71ab 7733 e6ad
000002e0: c78c 01b0 2397 43b0 10fa 262d 008e 2aa5
000002f0: a21d d1ae 16cd fc37 06ac b337 11e1 51b2
00000300: becc 5cb3 d01e 333b 2f5c 6ab2 4e1d 8b37
00000310: d7a2 d238 3def e532 1c2d 583a 0c59 b332
00000320: 83ab feb4 110c 5f3a 1c16 3532 b881 8b32
00000330: e7d0 30b4 60c2 61b2 5b78 a2b2 09e2 1d3b
00000340: dcdf 44bb 1812 84b2 ed61 713a 48d0 ac31
00000350: 195d 72b0 122f df38 a486 3032 91df 1aba
00000360: f0cf 0280 5042 0100 c6ac 0680 b582 0480
00000370: d5be 0480 2282 0680 eeb2 0380 d707 0180
00000380: d23f 0580 61e6 0500 5fb0 0580 092f 0100
00000390: cee8 0500 4bc6 0100 6b5a 0500 ab46 0600
000003a0: fafb 0000 2f62 0100 964b 0480 6fa8 0580
000003b0: b108 0600 50b0 0300 9342 0680 f1ca 0200
000003c0: d861 0680 575f 0480 5d91 0000 b4a8 8dbb
000003d0: 76da 7b3c cba2 2c3c 246b e73b ab57 813c
000003e0: 87a4 2f3c 93c8 473c e9d5 303c c395 863b
000003f0: 7b59 3fbb 41b0 97bb 5ffd f23a 3314 983b

bias f4 [32]
-0.0059545697 -0.00032078402 0.018296562 0.0014716851 0.039793562 0.012094085 0.0062308908 -0.011955193
-0.0002663464 0.016167339 0.0074128197 -4.1363595e-08 -0.0074433917 0.028793374 -0.01017657 -0.00041862176
0.018215334 -4.982866e-07 0.00544589 -0.013654592 0.002229401 0.020957507 -0.009714681 0.006170948
0.008714327 0.0009983211 0.020307455 -0.0048596296 -0.00064480206 -0.0071712523 -3.5535292e-09 0.005246975
00000000: 8d1e c3bb e72e a8b9 ace2 953c 8fe5 c03a
00000010: 93fe 223d 4526 463c 802c cc3b b7df 43bc
00000020: 69a4 8bb9 5e71 843c 3de7 f23b c1a7 31b3
00000030: b2e7 f3bb 15e0 eb3c a1bb 26bc 767a dbb9
00000040: 5338 953c ffc1 05b5 7073 b23b 83b7 5fbc
00000050: 241b 123b 14af ab3c 532a 1fbc aa35 ca3b
00000060: 89c6 0e3c 19da 823a d25b a63c 873d 9fbb
00000070: ef07 29ba d3fc eabb 5932 74b1 d1ee ab3b

weight f4 [32, 32, 3, 3, 3]
-5.6998826e-05 0.0039941263 0.0066222283 -0.001733491 0.005285017 -0.0014344112 -0.00199519 -0.00025314468
-4.1601066e-05 0.00092219235 0.0023967295 -0.0022257292 0.00057549874 -0.0013034496 -0.003518691 0.005955742
0.00027269634 -0.005104188 0.0063174185 -0.001415194 0.0004605033 0.00300477 0.003275273 0.00096171966
-0.00048749193 0.0065207602 0.0008323323 -0.043148365 -0.064480364 -0.072103925 -0.005564194 -0.026206998
-0.057199236 0.031775877 0.020804223 0.033662442 -0.04613162 0.0077363714 0.014258901 0.0043510413
0.020763686 -0.00095869804 0.001210932 0.031323552 0.016808914 -0.06437963 0.010577107 0.0304695
0.004389526 0.017404208 0.027258012 -0.004870066 0.0041843713 0.03050735 -0.015413822 -0.054564465
-0.03002752 0.020257654 -0.009880334 0.002934059 0.009614376 -0.0030492598 0.0066836555 0.0045462153
0.019113688 0.014685884 0.018541621 0.05118058 -0.011963297 0.04221361 -0.02650832 0.002479263
0.07056381 0.03498363 0.03824223 -0.026803402 0.04833247 0.04796825 -0.010243468 0.03777765
0.06631098 -0.006333257 -0.010655777 -0.0049088174 -0.0013742851 0.0020416363 -0.0016823726 0.015572293
0.006277119 0.015997145 -0.009293491 -0.0072456165 -0.0017721509 0.0025748448 0.0035129965 0.012379529
-0.00032210126 0.004949429 0.015992898 0.009197094 0.0029779226 -0.0039040174 -0.0015580929 0.015346627
8.151817e-05 -0.0027961265 0.024546463 0.0042923368 0.0011178034 -0.049922504 -0.061006512 0.038841795
-0.016270075 -0.00014981849 0.03318134 0.03728955 0.046480566 -0.031236827 -0.04974525 -0.029939538
0.0047048563 -0.006633625 -0.0031644024 0.008379996 -0.033159845 -8.074391e-05 0.045511827 0.006445907
-0.00086689636 0.031287014 -0.0010787874 0.025201326 0.010395033 0.014368306 -0.012941916 0.052911125
-0.0387128 -0.049062017 0.014534403 -0.04702874 -0.014169739 -0.0065592695 0.0017738375 -0.0073383823
0.034323443 0.012349181 -0.05667789 0.019016162 -0.035421465 -0.056291535 0.006385312 -0.02246486
-0.027313214 0.005834107 0.037999433 -0.0039029177 0.032244638 0.031146426 0.032348417 0.014403284
0.0014902351 0.032158766 0.028392373 0.034905083 -0.15805133 -0.07669325 0.085178286 0.028971149
0.0035013524 0.0098934565 -0.0017269765 0.09470848 -0.022419313 0.054362204 0.07586906 -0.025765864
0.023295598 -0.045793805 -0.035740215 -0.034246594 0.03391639 0.09171003 -0.03139895 -0.04173991
0.05550064 -0.03933296 0.073520884 0.07331716 0.035877652 -0.0038634352 -0.011711501 -0.003755066
-0.0027493266 0.0041380655 0.026638716 -0.009464071 0.0050218343 0.019625563 -0.008811843 -0.021960622
-0.025071524 -0.00025158603 0.010420999 0.024833431 -0.016252734 0.016148746 0.015601562 -0.0056908345
0.0064102127 0.001042473 -0.0044065076 0.027582224 0.020716462 0.010589698 0.016601633 0.008702525
-0.033917114 0.0847156 0.13096167 0.043708935 0.0052213687 -0.0047812676 -0.05108831 -0.13250406
-0.025427274 -0.0008894719 -0.022844259 -0.0077696103 0.046438318 -0.030923447 -0.015051985 -0.06714091
0.03551456 -0.01120422 0.03737595 0.004140399 0.018234976 0.046621718 0.14534889 -0.038526583
-0.023442721 -0.059777997 -0.025565635 -0.026948169 0.0009543886 0.033651814 0.00019491118 0.072313055
0.029660588 0.07766085 -0.019675732 -0.040154494 -0.046417132 -0.007963329 -0.028868968 0.01859057
00000000: 0612 6fb8 29e1 823b 47ff d83b 4e36 e3ba
00000010: f02d ad3b da02 bcba bcc1 02bb 81b8 84b9
00000020: ce7c 2eb8 48bf 713a 7312 1d3b 8add 11bb
00000030: 11dd 163a 83d8 aaba d799 66bb 6328 c33b
00000040: aff8 8e39 0841 a7bb 5902 cf3b 087e b9ba
00000050: b56f f139 adeb 443b f6a5 563b ea1b 7c3a
00000060: 0f96 ffb9 1aac d53b e030 5a3a 57bc 30bd
00000070: 480e 84bd 39ab 93bd d853 b6bb 0fb0 d6bc
00000080: bf49 6abd 6c27 023d 9e6d aa3c a1e1 093d
00000090: 82f4 3cbd 6381 fd3b 2a9e 693c 2e93 8e3b
000000a0: 9b18 aa3c 2351 7bba 23b8 9e3a 204d 003d
000000b0: d9b2 893c 78d9 83bd 9a4b 2d3c 2c9b f93c
000000c0: 03d6 8f3b 4593 8e3c 324c df3c 1395 9fbb
000000d0: 0d1d 893b 8dea f93c 418a 7cbc fd7e 5fbd
000000e0: 46fc f5bc 61f3 a53c 20e1 21bc 5749 403b
000000f0: 9e85 1d3c 17d6 47bb 9102 db3b 6bf8 943b
00000100: 4f94 9c3c 109d 703c 99e4 973c baa2 513d
00000110: b401 44bc 2ee8 2c3d fa27 d9bc 227b 223b
00000120: c283 903d ff4a 0f3d e2a3 1c3d cf92 dbbc
00000130: 45f8 453d 5b7a 443d 38d4 27bc bdbc 1a3d
00000140: 0dce 873d 3687 cfbb 9195 2ebc 25da a0bb
00000150: 5b21 b4ba f9cc 053b 0f83 dcba ee22 7f3c
00000160: 4ab0 cd3b 720c 833c ba43 18bc a36c edbb
00000170: 8447 e8ba babe 283b 4d3a 663b 82d3 4a3c
00000180: b3df a8b9 d22e a23b 8a03 833c 68af 163c
00000190: 4029 433b 8bda 7fbb ec38 ccba 6b70 7b3c
000001a0: bcf4 aa38 383f 37bb aa15 c93c bba6 8c3b
000001b0: 4283 923a 8a7b 4cbd f7e1 79bd 9318 1f3d
000001c0: d248 85bc 9818 1db9 28e9 073d edbc 183d
000001d0: 6862 3e3d 60e4 ffbc adc1 4bbd c343 f5bc
000001e0: 322b 9a3b e15e d9bb dd61 4fbb 404c 093c
000001f0: 9ed2 07bd 0e55 a9b8 9c6a 3a3d 3038 d33b
00000200: 6e40 63ba d026 003d 1966 8dba 0373 ce3c
00000210: ee4f 2a3c 0b69 6b3c 540a 54bc 56b9 583d
00000220: 5091 1ebd 41f5 48bd b421 6e3c 35a1 40bd
00000230: 3128 68bc 24ef d6bb 1c80 e83a d076 f0bb
00000240: bd96 0c3d 3854 4a3c 1327 68bd c8c7 9b3c
00000250: 1916 11bd f491 66bd e13b d13b 3a08 b8bc
00000260: f6bf dfbc 092c bf3b 4ba5 1b3d 18c8 7fbb
00000270: f412 043d ca26 ff3c c67f 043d c0fb 6b3c
00000280: fe53 c33a e9b8 033d 1f97 e83c a2f8 0e3d
00000290: 35d8 21be 5a11 9dbd f471 ae3d e754 ed3c
000002a0: f276 653b 2a18 223c b75b e2ba 85f6 c13d
000002b0: b5a8 b7bc e7aa 5e3d 3d61 9b3d ef12 d3bc
000002c0: 69d6 be3c 4992 3bbd 5564 12bd 2846 0cbd
000002d0: eaeb 0a3d 78d2 bb3d 2f9c 00bd 78f7 2abd
000002e0: a454 633d 991b 21bd 1e92 963d 4f27 963d
000002f0: 72f4 123d b031 7dbb 98e1 3fbc 8e17 76bb
00000300: 0c2e 34bb 9c98 873b 7039 da3c 310f 1bbc
00000310: 338e a43b cac5 a03c 8c5f 10bc c3e6 b3bc
00000320: cc62 cdbc 4ee7 83b9 d6bc 2a3c 7b6f cb3c
00000330: 7424 85bc 604a 843c b29d 7f3c 2e7a babb
00000340: c30c d23b 97a3 883a 7764 90bb 1ef4 e13c
00000350: 92b5 a93c 6a80 2d3c 2600 883c 0995 0e3c
00000360: acec 0abd 5f7f ad3d d11a 063e 2408 333d
00000370: 0418 ab3b 2eac 9cbb fa41 51bd 25af 07be
00000380: dc4c d0bc 732b 69ba e223 bbbc 3798 febb
00000390: 1b36 3e3d 2b53 fdbc 9a9c 76bc 2c81 89bd
000003a0: b777 113d e891 37bc 8617 193d 2fac 873b
000003b0: 8461 953c 6af6 3e3d 57d6 143e 0dce 1dbd
000003c0: f30a c0bc c6d9 74bd 066f d1bc 68c2 dcbc
000003d0: ef2f 7a3a 7cd6 093d 1261 4c39 de18 943d
000003e0: c3fa f23c a70c 9f3d 002f a1bc 0a79 24bd
000003f0: e41f 3ebd 9f78 02bc 9d7e ecbc 404b 983c

bias f4 [32]
-0.0003009469 -0.00040003212 -0.00014830372 -0.0005591611 9.1642985e-05 -0.00027341096 0.00067913876 -9.21553e-05
-0.0007457986 0.00031129245 0.0010001552 -0.00063671655 0.0003779308 0.0005566467 -0.0002275268 -0.000100895064
1.3133684e-05 -0.00042975077 4.6171817e-06 2.135677e-05 -0.0007247073 -0.00010618474 0.0004345268 0.00013380844
-0.00037771804 0.00034335125 0.0011202319 0.00028462315 -0.00021834864 -0.0010670238 0.00036496832 -0.001321303
00000000: 69c8 9db9 67bb d1b9 fa81 1bb9 ab94 12ba
00000010: 7430 c038 9958 8fb9 3b08 323a 8043 c1b8
00000020: b281 43ba f734 a339 a417 833a 53e9 26ba
00000030: 0325 c639 edeb 113a 4394 6eb9 a097 d3b8
00000040: be58 5c37 2c50 e1b9 4aed 9a36 5027 b337
00000050: 49fa 3dba 80af deb8 33d1 e339 ee4e 0c39
00000060: 7508 c6b9 d303 b439 bfd4 923a 7939 9539
00000070: 84f4 64b9 61db 8bba 3859 bf39 922f adba
